===> Loading data
loading annotations into memory...
Done (t=0.31s)
creating index...
index created!
val2017 img path loaded from ./data/COCO/cache/val2017_img_path.pkl
val2017 gt roidb loaded from ./data/COCO/cache/val2017_gt_roidb.pkl
===> Building model
==>Feature map size:
[(19, 19), (10, 10), (5, 5), (3, 3), (2, 2), (1, 1)]
Utilize GPUs for computation
Number of GPU available 1
Model architectures:
RFBLite(
  (base): ModuleList(
    (0): Sequential(
      (0): Conv2d(3, 32, kernel_size=(3, 3), stride=(2, 2), padding=(1, 1), bias=False)
      (1): BatchNorm2d(32, eps=1e-05, momentum=0.1, affine=True)
      (2): ReLU(inplace)
    )
    (1): Sequential(
      (0): Conv2d(32, 32, kernel_size=(3, 3), stride=(1, 1), padding=(1, 1), groups=32, bias=False)
      (1): BatchNorm2d(32, eps=1e-05, momentum=0.1, affine=True)
      (2): ReLU(inplace)
      (3): Conv2d(32, 64, kernel_size=(1, 1), stride=(1, 1), bias=False)
      (4): BatchNorm2d(64, eps=1e-05, momentum=0.1, affine=True)
      (5): ReLU(inplace)
    )
    (2): Sequential(
      (0): Conv2d(64, 64, kernel_size=(3, 3), stride=(2, 2), padding=(1, 1), groups=64, bias=False)
      (1): BatchNorm2d(64, eps=1e-05, momentum=0.1, affine=True)
      (2): ReLU(inplace)
      (3): Conv2d(64, 128, kernel_size=(1, 1), stride=(1, 1), bias=False)
      (4): BatchNorm2d(128, eps=1e-05, momentum=0.1, affine=True)
      (5): ReLU(inplace)
    )
    (3): Sequential(
      (0): Conv2d(128, 128, kernel_size=(3, 3), stride=(1, 1), padding=(1, 1), groups=128, bias=False)
      (1): BatchNorm2d(128, eps=1e-05, momentum=0.1, affine=True)
      (2): ReLU(inplace)
      (3): Conv2d(128, 128, kernel_size=(1, 1), stride=(1, 1), bias=False)
      (4): BatchNorm2d(128, eps=1e-05, momentum=0.1, affine=True)
      (5): ReLU(inplace)
    )
    (4): Sequential(
      (0): Conv2d(128, 128, kernel_size=(3, 3), stride=(2, 2), padding=(1, 1), groups=128, bias=False)
      (1): BatchNorm2d(128, eps=1e-05, momentum=0.1, affine=True)
      (2): ReLU(inplace)
      (3): Conv2d(128, 256, kernel_size=(1, 1), stride=(1, 1), bias=False)
      (4): BatchNorm2d(256, eps=1e-05, momentum=0.1, affine=True)
      (5): ReLU(inplace)
    )
    (5): Sequential(
      (0): Conv2d(256, 256, kernel_size=(3, 3), stride=(1, 1), padding=(1, 1), groups=256, bias=False)
      (1): BatchNorm2d(256, eps=1e-05, momentum=0.1, affine=True)
      (2): ReLU(inplace)
      (3): Conv2d(256, 256, kernel_size=(1, 1), stride=(1, 1), bias=False)
      (4): BatchNorm2d(256, eps=1e-05, momentum=0.1, affine=True)
      (5): ReLU(inplace)
    )
    (6): Sequential(
      (0): Conv2d(256, 256, kernel_size=(3, 3), stride=(2, 2), padding=(1, 1), groups=256, bias=False)
      (1): BatchNorm2d(256, eps=1e-05, momentum=0.1, affine=True)
      (2): ReLU(inplace)
      (3): Conv2d(256, 512, kernel_size=(1, 1), stride=(1, 1), bias=False)
      (4): BatchNorm2d(512, eps=1e-05, momentum=0.1, affine=True)
      (5): ReLU(inplace)
    )
    (7): Sequential(
      (0): Conv2d(512, 512, kernel_size=(3, 3), stride=(1, 1), padding=(1, 1), groups=512, bias=False)
      (1): BatchNorm2d(512, eps=1e-05, momentum=0.1, affine=True)
      (2): ReLU(inplace)
      (3): Conv2d(512, 512, kernel_size=(1, 1), stride=(1, 1), bias=False)
      (4): BatchNorm2d(512, eps=1e-05, momentum=0.1, affine=True)
      (5): ReLU(inplace)
    )
    (8): Sequential(
      (0): Conv2d(512, 512, kernel_size=(3, 3), stride=(1, 1), padding=(1, 1), groups=512, bias=False)
      (1): BatchNorm2d(512, eps=1e-05, momentum=0.1, affine=True)
      (2): ReLU(inplace)
      (3): Conv2d(512, 512, kernel_size=(1, 1), stride=(1, 1), bias=False)
      (4): BatchNorm2d(512, eps=1e-05, momentum=0.1, affine=True)
      (5): ReLU(inplace)
    )
    (9): Sequential(
      (0): Conv2d(512, 512, kernel_size=(3, 3), stride=(1, 1), padding=(1, 1), groups=512, bias=False)
      (1): BatchNorm2d(512, eps=1e-05, momentum=0.1, affine=True)
      (2): ReLU(inplace)
      (3): Conv2d(512, 512, kernel_size=(1, 1), stride=(1, 1), bias=False)
      (4): BatchNorm2d(512, eps=1e-05, momentum=0.1, affine=True)
      (5): ReLU(inplace)
    )
    (10): Sequential(
      (0): Conv2d(512, 512, kernel_size=(3, 3), stride=(1, 1), padding=(1, 1), groups=512, bias=False)
      (1): BatchNorm2d(512, eps=1e-05, momentum=0.1, affine=True)
      (2): ReLU(inplace)
      (3): Conv2d(512, 512, kernel_size=(1, 1), stride=(1, 1), bias=False)
      (4): BatchNorm2d(512, eps=1e-05, momentum=0.1, affine=True)
      (5): ReLU(inplace)
    )
    (11): Sequential(
      (0): Conv2d(512, 512, kernel_size=(3, 3), stride=(1, 1), padding=(1, 1), groups=512, bias=False)
      (1): BatchNorm2d(512, eps=1e-05, momentum=0.1, affine=True)
      (2): ReLU(inplace)
      (3): Conv2d(512, 512, kernel_size=(1, 1), stride=(1, 1), bias=False)
      (4): BatchNorm2d(512, eps=1e-05, momentum=0.1, affine=True)
      (5): ReLU(inplace)
    )
    (12): Sequential(
      (0): Conv2d(512, 512, kernel_size=(3, 3), stride=(2, 2), padding=(1, 1), groups=512, bias=False)
      (1): BatchNorm2d(512, eps=1e-05, momentum=0.1, affine=True)
      (2): ReLU(inplace)
      (3): Conv2d(512, 1024, kernel_size=(1, 1), stride=(1, 1), bias=False)
      (4): BatchNorm2d(1024, eps=1e-05, momentum=0.1, affine=True)
      (5): ReLU(inplace)
    )
    (13): Sequential(
      (0): Conv2d(1024, 1024, kernel_size=(3, 3), stride=(1, 1), padding=(1, 1), groups=1024, bias=False)
      (1): BatchNorm2d(1024, eps=1e-05, momentum=0.1, affine=True)
      (2): ReLU(inplace)
      (3): Conv2d(1024, 1024, kernel_size=(1, 1), stride=(1, 1), bias=False)
      (4): BatchNorm2d(1024, eps=1e-05, momentum=0.1, affine=True)
      (5): ReLU(inplace)
    )
  )
  (norm): BasicRFB_a_lite(
    (branch0): Sequential(
      (0): BasicConv(
        (conv): Conv2d(512, 128, kernel_size=(1, 1), stride=(1, 1), bias=False)
        (bn): BatchNorm2d(128, eps=1e-05, momentum=0.01, affine=True)
        (relu): ReLU(inplace)
      )
      (1): BasicSepConv(
        (conv): Conv2d(128, 128, kernel_size=(3, 3), stride=(1, 1), padding=(1, 1), bias=False)
        (bn): BatchNorm2d(128, eps=1e-05, momentum=0.01, affine=True)
      )
    )
    (branch1): Sequential(
      (0): BasicConv(
        (conv): Conv2d(512, 128, kernel_size=(1, 1), stride=(1, 1), bias=False)
        (bn): BatchNorm2d(128, eps=1e-05, momentum=0.01, affine=True)
        (relu): ReLU(inplace)
      )
      (1): BasicConv(
        (conv): Conv2d(128, 128, kernel_size=(3, 1), stride=(1, 1), padding=(1, 0), bias=False)
        (bn): BatchNorm2d(128, eps=1e-05, momentum=0.01, affine=True)
        (relu): ReLU(inplace)
      )
      (2): BasicSepConv(
        (conv): Conv2d(128, 128, kernel_size=(3, 3), stride=(1, 1), padding=(3, 3), dilation=(3, 3), bias=False)
        (bn): BatchNorm2d(128, eps=1e-05, momentum=0.01, affine=True)
      )
    )
    (branch2): Sequential(
      (0): BasicConv(
        (conv): Conv2d(512, 128, kernel_size=(1, 1), stride=(1, 1), bias=False)
        (bn): BatchNorm2d(128, eps=1e-05, momentum=0.01, affine=True)
        (relu): ReLU(inplace)
      )
      (1): BasicConv(
        (conv): Conv2d(128, 128, kernel_size=(1, 3), stride=(1, 1), padding=(0, 1), bias=False)
        (bn): BatchNorm2d(128, eps=1e-05, momentum=0.01, affine=True)
        (relu): ReLU(inplace)
      )
      (2): BasicSepConv(
        (conv): Conv2d(128, 128, kernel_size=(3, 3), stride=(1, 1), padding=(3, 3), dilation=(3, 3), bias=False)
        (bn): BatchNorm2d(128, eps=1e-05, momentum=0.01, affine=True)
      )
    )
    (branch3): Sequential(
      (0): BasicConv(
        (conv): Conv2d(512, 64, kernel_size=(1, 1), stride=(1, 1), bias=False)
        (bn): BatchNorm2d(64, eps=1e-05, momentum=0.01, affine=True)
        (relu): ReLU(inplace)
      )
      (1): BasicConv(
        (conv): Conv2d(64, 96, kernel_size=(1, 3), stride=(1, 1), padding=(0, 1), bias=False)
        (bn): BatchNorm2d(96, eps=1e-05, momentum=0.01, affine=True)
        (relu): ReLU(inplace)
      )
      (2): BasicConv(
        (conv): Conv2d(96, 128, kernel_size=(3, 1), stride=(1, 1), padding=(1, 0), bias=False)
        (bn): BatchNorm2d(128, eps=1e-05, momentum=0.01, affine=True)
        (relu): ReLU(inplace)
      )
      (3): BasicSepConv(
        (conv): Conv2d(128, 128, kernel_size=(3, 3), stride=(1, 1), padding=(5, 5), dilation=(5, 5), bias=False)
        (bn): BatchNorm2d(128, eps=1e-05, momentum=0.01, affine=True)
      )
    )
    (ConvLinear): BasicConv(
      (conv): Conv2d(512, 512, kernel_size=(1, 1), stride=(1, 1), bias=False)
      (bn): BatchNorm2d(512, eps=1e-05, momentum=0.01, affine=True)
    )
    (relu): ReLU()
  )
  (extras): ModuleList(
    (0): BasicRFB_lite(
      (branch1): Sequential(
        (0): BasicConv(
          (conv): Conv2d(1024, 128, kernel_size=(1, 1), stride=(1, 1), bias=False)
          (bn): BatchNorm2d(128, eps=1e-05, momentum=0.01, affine=True)
          (relu): ReLU(inplace)
        )
        (1): BasicConv(
          (conv): Conv2d(128, 192, kernel_size=(1, 3), stride=(1, 1), padding=(0, 1), bias=False)
          (bn): BatchNorm2d(192, eps=1e-05, momentum=0.01, affine=True)
          (relu): ReLU(inplace)
        )
        (2): BasicConv(
          (conv): Conv2d(192, 192, kernel_size=(3, 1), stride=(2, 2), padding=(1, 0), bias=False)
          (bn): BatchNorm2d(192, eps=1e-05, momentum=0.01, affine=True)
          (relu): ReLU(inplace)
        )
        (3): BasicSepConv(
          (conv): Conv2d(192, 192, kernel_size=(3, 3), stride=(1, 1), padding=(3, 3), dilation=(3, 3), bias=False)
          (bn): BatchNorm2d(192, eps=1e-05, momentum=0.01, affine=True)
        )
      )
      (branch2): Sequential(
        (0): BasicConv(
          (conv): Conv2d(1024, 128, kernel_size=(1, 1), stride=(1, 1), bias=False)
          (bn): BatchNorm2d(128, eps=1e-05, momentum=0.01, affine=True)
          (relu): ReLU(inplace)
        )
        (1): BasicConv(
          (conv): Conv2d(128, 192, kernel_size=(3, 3), stride=(1, 1), padding=(1, 1), bias=False)
          (bn): BatchNorm2d(192, eps=1e-05, momentum=0.01, affine=True)
          (relu): ReLU(inplace)
        )
        (2): BasicConv(
          (conv): Conv2d(192, 192, kernel_size=(3, 3), stride=(2, 2), padding=(1, 1), bias=False)
          (bn): BatchNorm2d(192, eps=1e-05, momentum=0.01, affine=True)
          (relu): ReLU(inplace)
        )
        (3): BasicSepConv(
          (conv): Conv2d(192, 192, kernel_size=(3, 3), stride=(1, 1), padding=(5, 5), dilation=(5, 5), bias=False)
          (bn): BatchNorm2d(192, eps=1e-05, momentum=0.01, affine=True)
        )
      )
      (ConvLinear): BasicConv(
        (conv): Conv2d(384, 512, kernel_size=(1, 1), stride=(1, 1), bias=False)
        (bn): BatchNorm2d(512, eps=1e-05, momentum=0.01, affine=True)
      )
      (shortcut): BasicConv(
        (conv): Conv2d(1024, 512, kernel_size=(1, 1), stride=(2, 2), bias=False)
        (bn): BatchNorm2d(512, eps=1e-05, momentum=0.01, affine=True)
      )
      (relu): ReLU()
    )
    (1): BasicConv(
      (conv): Conv2d(512, 128, kernel_size=(1, 1), stride=(1, 1), bias=False)
      (bn): BatchNorm2d(128, eps=1e-05, momentum=0.01, affine=True)
      (relu): ReLU(inplace)
    )
    (2): BasicConv(
      (conv): Conv2d(128, 256, kernel_size=(3, 3), stride=(2, 2), padding=(1, 1), bias=False)
      (bn): BatchNorm2d(256, eps=1e-05, momentum=0.01, affine=True)
      (relu): ReLU(inplace)
    )
    (3): BasicConv(
      (conv): Conv2d(256, 128, kernel_size=(1, 1), stride=(1, 1), bias=False)
      (bn): BatchNorm2d(128, eps=1e-05, momentum=0.01, affine=True)
      (relu): ReLU(inplace)
    )
    (4): BasicConv(
      (conv): Conv2d(128, 256, kernel_size=(3, 3), stride=(2, 2), padding=(1, 1), bias=False)
      (bn): BatchNorm2d(256, eps=1e-05, momentum=0.01, affine=True)
      (relu): ReLU(inplace)
    )
    (5): BasicConv(
      (conv): Conv2d(256, 64, kernel_size=(1, 1), stride=(1, 1), bias=False)
      (bn): BatchNorm2d(64, eps=1e-05, momentum=0.01, affine=True)
      (relu): ReLU(inplace)
    )
    (6): BasicConv(
      (conv): Conv2d(64, 128, kernel_size=(3, 3), stride=(2, 2), padding=(1, 1), bias=False)
      (bn): BatchNorm2d(128, eps=1e-05, momentum=0.01, affine=True)
      (relu): ReLU(inplace)
    )
  )
  (loc): ModuleList(
    (0): Conv2d(512, 24, kernel_size=(3, 3), stride=(1, 1), padding=(1, 1))
    (1): Conv2d(1024, 24, kernel_size=(3, 3), stride=(1, 1), padding=(1, 1))
    (2): Conv2d(512, 24, kernel_size=(3, 3), stride=(1, 1), padding=(1, 1))
    (3): Conv2d(256, 24, kernel_size=(3, 3), stride=(1, 1), padding=(1, 1))
    (4): Conv2d(256, 16, kernel_size=(3, 3), stride=(1, 1), padding=(1, 1))
    (5): Conv2d(128, 16, kernel_size=(3, 3), stride=(1, 1), padding=(1, 1))
  )
  (conf): ModuleList(
    (0): Conv2d(512, 486, kernel_size=(3, 3), stride=(1, 1), padding=(1, 1))
    (1): Conv2d(1024, 486, kernel_size=(3, 3), stride=(1, 1), padding=(1, 1))
    (2): Conv2d(512, 486, kernel_size=(3, 3), stride=(1, 1), padding=(1, 1))
    (3): Conv2d(256, 486, kernel_size=(3, 3), stride=(1, 1), padding=(1, 1))
    (4): Conv2d(256, 324, kernel_size=(3, 3), stride=(1, 1), padding=(1, 1))
    (5): Conv2d(128, 324, kernel_size=(3, 3), stride=(1, 1), padding=(1, 1))
  )
  (softmax): Softmax()
)

Parameters and size:
base.0.0.weight: [32, 3, 3, 3]
base.0.1.weight: [32]
base.0.1.bias: [32]
base.1.0.weight: [32, 1, 3, 3]
base.1.1.weight: [32]
base.1.1.bias: [32]
base.1.3.weight: [64, 32, 1, 1]
base.1.4.weight: [64]
base.1.4.bias: [64]
base.2.0.weight: [64, 1, 3, 3]
base.2.1.weight: [64]
base.2.1.bias: [64]
…
